model.pt (torch, 5974 bytes, 4 tensors)

weight f4 [2, 144]
00000000: df2a 06bd 47a9 3e3d 42c8 7c3d f53a 7dbb
00000010: c76d 653c 8175 81bd 2c0c 41bd 7d5d 8bbd
00000020: a8a4 533d 5b35 403c 8a1d bcbc cd4a 7c3d
00000030: ffa1 093d 3c02 ec3c 08b3 c5bc f867 ddbc
00000040: 026b 2ebd f10a 08bc 3f7d 7e3c ed13 6c3c
00000050: f6d9 01bd 844c 7abd ef43 31bc f9ef da3b
00000060: b8a1 05bd b292 433d 3a8a 06bd 5ffe 2b3d
00000070: 7cbb 6cbd 95bf 54bd c38d be39 3d14 f6bc
00000080: aef4 bf3b 5e5f e33b 88fd 53bd 8fc2 ea3b
00000090: a490 73bc bf68 973d 66db 1bbd 70e2 c9b8
000000a0: b2c3 fc3b 16c0 d7bc 2bcb f6bb fb79 053d
000000b0: 60d9 98bc 38ae 04bd 5e0d b1bc aba1 1bbd
000000c0: 5e1c 88bc be6f fb3c 9ff4 56bc 106c 27bc
000000d0: 0f26 30bc 0687 1d3d cbac e83b 411d 193c
000000e0: 5eb6 243d 89d9 8ebd b9e1 ea3b 2048 9a3c
000000f0: b65e 0f3c 2a40 3d3c a262 8fbc 2437 9cbc
00000100: 9683 1d3d ab80 93bd a53b c63c a1af 9d3d
00000110: fa76 0ebc 03b1 f03c cdf3 ad3c a4fd 0d3d
00000120: c52d cfbc a80f 68bb 61cf b53c 38d0 773d
00000130: 261f 83bc e80f ffb8 c3e7 123c adff 123c
00000140: 8e1c cc3c c9dd 313d 5b65 b7bc 40a7 223c
00000150: c5dc 673d f2b8 13bc 306e 2a3c dbe8 ce38
00000160: 822d 913c 1061 743b 8029 7d3d 2626 2abc
00000170: 790a b33a 500f 86bc 3567 38bd 5185 e73c
00000180: 870e 04bc 426e 79bd 2b62 03bd cdfe 3abc
00000190: 7e73 4fbd 1f5a 843d a7da 2a3d 74d9 153d
000001a0: 2e1c 443d b884 763c 88e0 b0bc 8aea 103d
000001b0: 7407 cd3c 652b 3cbc 6ce8 37bd 30e3 a03b
000001c0: a091 783d b597 d9bc 3c99 6d3b 6937 e33c
000001d0: 10d1 ee3a f729 9cbc 24cb 35ba effa 7ebc
000001e0: d913 51bd 8ca6 6ebc f03e 493d 964c b0bd
000001f0: 235a 803d f240 653c 2904 8f3a 00bf dc3c
00000200: 9684 1f3d fc1d 29bd 8fb2 9abc 7a37 4dbd
00000210: 66ae d4bc e821 0fbd 16f2 533d 953c e4bc
00000220: 32b0 b43b a1c7 08bc 6aca aabd 8d10 0dbb
00000230: 9c49 b0ba 6cdb 5fbc 93f1 31bc 50e6 9c3c
00000240: 6b48 123c 561a d4bc 6cab cd3a 3f76 d43c
00000250: ee40 46bc b156 64bc b736 17bd 6327 e0bc
00000260: c504 24bd 1e5e a13c 0888 88bb c1e8 05bb
00000270: 6961 333d dbfe cd3c c654 023d fba0 c73b
00000280: 82e1 7b3d f3ae a6bc d988 113d c6e3 1dbc
00000290: 12f8 bf3c 3f89 5cbc c0ad db3c 46e8 85bc
000002a0: 94c1 123d 4f6a bdbb 4c8a 88bd 4b7a fa3b
000002b0: 3aaf 6dbc 8744 8abc 83ec af3d 8205 8e3c
000002c0: c8ba 863d ab42 c13a 3b26 1f3d 9d2a 84bd
000002d0: a15a 95bb 9dfd 3ebc dee1 90bc 6fc9 2dbd
000002e0: 1033 d43b 9351 dc3c 6c3d 7ebd a9fd 933c
000002f0: 849a 97bc 3563 6c3d 5ec1 1f3c 8d4f df3c
00000300: 0f89 4c3c 3af7 193c 7fb1 483c ff15 f9bc
00000310: d95c ae3b 1214 a0bc 9056 8abb cba3 e3bc
00000320: 5fc8 dcbb ccb0 04bd c74c 44bc c5dc a73c
00000330: 309a 69bc 1997 1838 ab3d 81bd 6a5f 91bc
00000340: bb62 0c3c 8601 053c a75a e038 82a6 02bd
00000350: 9b9f 2fbc 0999 bebb 2fce dcbc 6872 d6bb
00000360: 5ddd e6bc 7914 3cbc b6e4 47bb 3ce0 8fba
00000370: 6726 c8bb 86a4 553c 5c54 c8bb f5dd 8dbd
00000380: a101 99bc d1a5 89bc 80cd 11bb 7b23 193b
00000390: 4167 91bc bb5c 61bc 66cc 95bc 2a66 033d
000003a0: 7420 03bd ac18 0abd f823 1ebd cdb0 05bd
000003b0: bf8a ddbc 94f0 14bc 36af 45bc f42d 1bbd
000003c0: 0497 99bc 9ffe d53b 6369 c6bc caaf b5bd
000003d0: c9ff 48bb e8c7 9bbb 72e1 6e3c 5ea8 29bb
000003e0: 9af0 6f3c 2496 033b ec30 4ebc 0ca2 193d
000003f0: be6f c03a 3cb9 d2bb e188 aa3c 0bad 0b3d
-0.03275573 0.046548154 0.06171442 -0.0038639877 0.014003224 -0.0632124 -0.04713075 -0.06804941
0.0516707 0.011731471 -0.022963304 0.061594773 0.033601757 0.02880966 -0.02413322 -0.027027115
-0.04258252 -0.00830339 0.015532791 0.014409048 -0.031702004 -0.061108127 -0.010819419 0.006681439
-0.03262493 0.04774732 -0.032846667 0.041990634 -0.057795987 -0.05194052 0.00036345245 -0.030038947
0.0058580255 0.006938859 -0.051755458 0.0071643065 -0.014866028 0.073930256 -0.03805103 -9.626604e-05
0.0077137584 -0.02633671 -0.0075315437 0.032587033 -0.01865834 -0.03239271 -0.02161282 -0.037995975
-0.016615089 0.030692931 -0.013119846 -0.010218635 -0.010751261 0.038458847 0.0071006767 0.009345354
0.04021298 -0.06975085 0.0071680215 0.01883322 0.008750608 0.011550942 -0.017503086 -0.019069262
0.03845557 -0.07202276 0.024198363 0.07699514 -0.008695358 0.02938128 0.021234417 0.03466572
-0.02529038 -0.0035409722 0.022193613 0.060501307 -0.016006064 -0.0001216231 0.008966389 0.008972091
0.02491596 0.0434244 -0.022387197 0.009927571 0.056607027 -0.009016262 0.010402247 9.866218e-05
0.017721895 0.00372893 0.061807156 -0.010385072 0.0013659737 -0.016364723 -0.0450203 0.028261812
-0.008060104 -0.060896166 -0.032076042 -0.011413288 -0.05064725 0.06462502 0.04171243 0.036584333
0.047878437 0.015046291 -0.02159144 0.035379924 0.025027968 -0.011484955 -0.04489939 0.0049098954
0.060685754 -0.026561597 0.0036254665 0.027736383 0.0018220264 -0.01906298 -0.00069348724 -0.015562757
-0.05104432 -0.014566075 0.049132288 -0.086083576 0.06267192 0.013992535 0.0010911274 0.026946545
0.038944803 -0.04128836 -0.018883971 -0.050101735 -0.025962066 -0.034944445 0.051744543 -0.027860919
0.005514168 -0.0083483765 -0.08339389 -0.0021524758 -0.0013449672 -0.013663154 -0.010860818 0.01915279
0.008928399 -0.025891464 0.0015691346 0.02593529 -0.012100441 -0.0139366845 -0.036917415 -0.027362531
-0.04004361 0.019698199 -0.004166607 -0.0020432922 0.04379407 0.025145939 0.031819128 0.0060921884
0.061494358 -0.020347094 0.0355309 -0.009636825 0.023433719 -0.013460456 0.026816249 -0.016346108
0.03582914 -0.0057804952 -0.06667003 0.007643973 -0.014507109 -0.01687838 0.08590033 0.01733661
0.065785944 0.00147446 0.03885482 -0.0645344 -0.004557923 -0.011657146 -0.017685827 -0.04242843
0.0064758137 0.026894366 -0.062070295 0.01806529 -0.018506296 0.0577118 0.009750692 0.027259612
0.012483849 0.009397322 0.01224935 -0.030405996 0.005321127 -0.01954082 -0.004221745 -0.027788064
-0.0067377533 -0.03239517 -0.011981196 0.020491013 -0.014257953 3.6380345e-05 -0.0631059 -0.017745692
0.008568461 0.008118039 0.00010698038 -0.031897075 -0.010719205 -0.005816583 -0.026953785 -0.0065444
-0.028181726 -0.01147949 -0.0030501313 -0.0010976861 -0.0061080935 0.013039714 -0.006113572 -0.069271006
-0.018677535 -0.0168027 -0.0022247732 0.0023367095 -0.01774943 -0.013755019 -0.018285941 0.032079853
-0.03201337 -0.033714935 -0.03860852 -0.032639313 -0.027043698 -0.009090561 -0.012065699 -0.03788562
-0.018748768 0.0065305973 -0.024220174 -0.0887142 -0.0030670038 -0.0047540553 0.014580118 -0.0025887708
0.014644766 0.0020078504 -0.012584906 0.037508056 0.0014681739 -0.006430773 0.020817222 0.034100574

bias f4 [2]
00000000: e863 273f c231 4dbf
0.6538682 -0.8015405

weight f4 [2, 2]
00000000: 1562 a63f 670c afbe 8a1e aebf a06c 903f
1.2998682 -0.3418915 -1.360307 1.128315

bias f4 [2]
00000000: 0482 e03e c17d f1be
0.43849194 -0.47166255
